…
l_idx), activation='softmax')(z) model = Model(model_input, model_output) model.compile(loss='categorical_crossentropy', optimizer='adam', metrics=['acc']) model.summary() Model: \"functional_3\" __________________________________________________________________________________________________ Layer (type) Output Shape Param # Connected to ================================================================================================== input_2 (InputLayer) [(None, 35)] 0 __________________________________________________________________________________________________ embedding_2 (Embedding) (None, 35, 100) 987000 input_2[0][0] __________________________________________________________________________________________________ conv1d_5 (Conv1D) (None, 34, 512) 102912 embedding_2[0][0] __________________________________________________________________________________________________ conv1d_6 (Conv1D) (None, 33, 512) 154112 embedding_2[0][0] __________________________________________________________________________________________________ conv1d_7 (Conv1D) (None, 31, 512) 256512 embedding_2[0][0] __________________________________________________________________________________________________ global_max_pooling1d_5 (GlobalM (None, 512) 0 conv1d_5[0][0] __________________________________________________________________________________________________ global_max_pooling1d_6 (GlobalM (None, 512) 0 conv1d_6[0][0] __________________________________________________________________________________________________ global_max_pooling1d_7 (GlobalM (None, 512) 0 conv1d_7[0][0] __________________________________________________________________________________________________ flatten_3 (Flatten) (None, 512) 0 global_max_pooling1d_5[0][0] __________________________________________________________________________________________________ flatten_4 (Flatten) (None, 512) 0 global_max_pooling1d_6[0][0] __________________________________________________________________________________________________ flatten_5 (Flatten) (None, 512) 0 global_max_pooling1d_7[0][0] __________________________________________________________________________________________________ concatenate_1 (Concatenate) (None, 1536) 0 flatten_3[0][0] flatten_4[0][0] flatten_5[0][0] __________________________________________________________________________________________________ dropout_6 (Dropout) (None, 1536) 0 concatenate_1[0][0] __________________________________________________________________________________________________ dense_6 (Dense) (None, 6) 9222 dropout_6[0][0] ================================================================================================== Total params: 1,509,758 Trainable params: 522,758 Non-trainable params: 987,000 __________________________________________________________________________________________________ In&nbsp;[&nbsp;]: history = model.fit(X_train, y_train, batch_size=64, epochs=10, validation_data = (X_va
…
ue, show_layer_names=True, rankdir='TB') Model: \"functional_1\" __________________________________________________________________________________________________ Layer (type) Output Shape Param # Connected to ================================================================================================== input_1 (InputLayer) [(None, 1)] 0 __________________________________________________________________________________________________ input_2 (InputLayer) [(None, 1)] 0 __________________________________________________________________________________________________ embedding (Embedding) (None, 1, 100) 6427700 input_1[0][0] __________________________________________________________________________________________________ embedding_1 (Embedding) (None, 1, 100) 6427700 input_2[0][0] __________________________________________________________________________________________________ dot (Dot) (None, 1, 1) 0 embedding[0][0] embedding_1[0][0] __________________________________________________________________________________________________ reshape (Reshape) (None, 1) 0 dot[0][0] __________________________________________________________________________________________________ activation (Activation) (None, 1) 0 reshape[0][0] ================================================================================================== Total params: 12,855,400 Trainable params: 12,855,400 Non-trainable params: 0 __________________________________________________________________________________________________ Out[&nbsp;]: In&nbsp;[&nbsp;]: for epoch in range(1, 6): loss = 0 for _, elem in enumerate(skip_grams): first
…
